…
28_cnn.h5'}
(5000, 16385)
x.shape: (5000, 16384), y.shape: (5000, 1)
number of class: 5
min and max of x: 0.00, 1.00
x_train.shape: (4000, 128, 128, 1), x_test.shape: (1000, 128, 128, 1), y_train.shape: (4000, 1), y_test.shape: (1000, 1)

(128, 128, 1)
Model: "encoder"
__________________________________________________________________________________________________
Layer (type)                    Output Shape         Param #     Connected to                     
==================================================================================================
encoder_input (InputLayer)      [(None, 128, 128, 1) 0                                            
__________________________________________________________________________________________________
conv2d (Conv2D)                 (None, 63, 63, 64)   1088        encoder_input[0][0]              
__________________________________________________________________________________________________
dropout (Dropout)               (None, 63, 63, 64)   0           conv2d[0][0]                     
__________________________________________________________________________________________________
conv2d_1 (Conv2D)               (None, 30, 30, 128)  131200      dropout[0][0]                    
__________________________________________________________________________________________________
dropout_1 (Dropout)             (None, 30, 30, 128)  0           conv2d_1[0][0]                   
__________________________________________________________________________________________________
conv2d_2 (Conv2D)               (None, 15, 15, 512)  262656      dropout_1[0][0]                  
__________________________________________________________________________________________________
reshape (Reshape)               (None, 115200)       0           conv2d_2[0][0]                   
__________________________________________________________________________________________________
z_mean (Dense)                  (None, 2)            230402      reshape[0][0]                    
__________________________________________________________________________________________________
z_std (Dense)                   (None, 2)            230402      reshape[0][0]                    
__________________________________________________________________________________________________
z (Lambda)                      (None, 2)            0           z_mean[0][0]                     
                                                                 z_std[0][0]                      
==================================================================================================
Total params: 855,748
Trainable params: 855,748
Non-trainable params: 0
__________________________________________________________________________________________________
Model: "decoder"
_________________________________________________________________
Layer (type)                 Output Shape              Param #   
=================================================================
z_sampling (InputLayer)      [(None, 2)]               0         
_________________________________________________________________
dense (Dense)                (None, 2048)              6144      
_________________________________________________________________
reshape_1 (Reshape)          (None, 2, 2, 512)         0         
_________________________________________________________________
conv2d_transpose (Conv2DTran (None, 6, 6, 128)         1048704   
_________________________________________________________________
dropout_2 (Dropout)          (None, 6, 6, 128)         0         
_________________________________________________________________
conv2d_transpose_1 (Conv2DTr (None, 14, 14, 64)        131136    
_________________________________________________________________
dropout_3 (Dropout)          (None, 14, 14, 64)        0         
_________________________________________________________________
conv2d_transpose_2 (Conv2DTr (None, 28, 28, 1)         257       
=================================================================
Total params: 1,186,241
Trainable params: 1,186,241
Non-trainable params: 0
_________________________________________________________________
Traceback (most recent call last):
  File "/users/PAA0023/mason1099/.conda/envs/local/lib/python3.6/site-packages/tensorflow/python/framework/ops.py", line 1853, in _create_c_op
    c_op = pywrap_tf_session.TF_FinishOperation(op_desc)
…
