…
x_train.shape: (4000, 28, 28, 1), x_test.shape: (1000, 28, 28, 1), y_train.shape: (4000, 1), y_test.shape: (1000, 1)

Model: "encoder"
__________________________________________________________________________________________________
Layer (type)                    Output Shape         Param #     Connected to                     
==================================================================================================
encoder_input (InputLayer)      [(None, 28, 28, 1)]  0                                            
__________________________________________________________________________________________________
conv2d (Conv2D)                 (None, 13, 13, 64)   1088        encoder_input[0][0]              
__________________________________________________________________________________________________
dropout (Dropout)               (None, 13, 13, 64)   0           conv2d[0][0]                     
__________________________________________________________________________________________________
conv2d_1 (Conv2D)               (None, 5, 5, 128)    131200      dropout[0][0]                    
__________________________________________________________________________________________________
dropout_1 (Dropout)             (None, 5, 5, 128)    0           conv2d_1[0][0]                   
__________________________________________________________________________________________________
conv2d_2 (Conv2D)               (None, 2, 2, 512)    262656      dropout_1[0][0]                  
__________________________________________________________________________________________________
reshape (Reshape)               (None, 2048)         0           conv2d_2[0][0]                   
__________________________________________________________________________________________________
z_mean (Dense)                  (None, 2)            4098        reshape[0][0]                    
__________________________________________________________________________________________________
z_std (Dense)                   (None, 2)            4098        reshape[0][0]                    
__________________________________________________________________________________________________
z (Lambda)                      (None, 2)            0           z_mean[0][0]                     
                                                                 z_std[0][0]                      
==================================================================================================
Total params: 403,140
Trainable params: 403,140
Non-trainable params: 0
__________________________________________________________________________________________________
Model: "decoder"
_________________________________________________________________
Layer (type)                 Output Shape              Param #   
=================================================================
z_sampling (InputLayer)      [(None, 2)]               0         
_________________________________________________________________
dense (Dense)                (None, 2048)              6144      
_________________________________________________________________
reshape_1 (Reshape)          (None, 2, 2, 512)         0         
_________________________________________________________________
conv2d_transpose (Conv2DTran (None, 6, 6, 128)         1048704   
_________________________________________________________________
dropout_2 (Dropout)          (None, 6, 6, 128)         0         
_________________________________________________________________
conv2d_transpose_1 (Conv2DTr (None, 14, 14, 64)        131136    
_________________________________________________________________
dropout_3 (Dropout)          (None, 14, 14, 64)        0         
_________________________________________________________________
conv2d_transpose_2 (Conv2DTr (None, 28, 28, 1)         257       
=================================================================
Total params: 1,186,241
Trainable params: 1,186,241
Non-trainable params: 0
_________________________________________________________________
Model: "cnn_vae"
__________________________________________________________________________________________________
Layer (type)                    Output Shape         Param #     Connected to                     
==================================================================================================
encoder_input (InputLayer)      [(None, 28, 28, 1)]  0                                            
__________________________________________________________________________________________________
encoder (Functional)            [(None, 2), (None, 2 403140      encoder_input[0][0]              
__________________________________________________________________________________________________
decoder (Functional)            (None, 28, 28, 1)    1186241     encoder[0][2]                    
__________________________________________________________________________________________________
conv2d (Conv2D)                 (None, 13, 13, 64)   1088        encoder_input[0][0]              
__________________________________________________________________________________________________
dropout (Dropout)               (None, 13, 13, 64)   0           conv2d[0][0]                     
__________________________________________________________________________________________________
conv2d_1 (Conv2D)               (None, 5, 5, 128)    131200      dropout[0][0]                    
__________________________________________________________________________________________________
dropout_1 (Dropout)             (None, 5, 5, 128)    0           conv2d_1[0][0]                   
__________________________________________________________________________________________________
conv2d_2 (Conv2D)               (None, 2, 2, 512)    262656      dropout_1[0][0]                  
__________________________________________________________________________________________________
reshape (Reshape)               (None, 2048)         0           conv2d_2[0][0]                   
__________________________________________________________________________________________________
z_std (Dense)                   (None, 2)            4098        reshape[0][0]                    
__________________________________________________________________________________________________
z_mean (Dense)                  (None, 2)            4098        reshape[0][0]                    
__________________________________________________________________________________________________
tf.cast (TFOpLambda)            (None, 28, 28, 1)    0           encoder_input[0][0]              
__________________________________________________________________________________________________
tf.convert_to_tensor (TFOpLambd (None, 28, 28, 1)    0           decoder[0][0]                    
__________________________________________________________________________________________________
tf.__operators__.add (TFOpLambd (None, 2)            0           z_std[0][0]                      
__________________________________________________________________________________________________
tf.math.square (TFOpLambda)     (None, 2)            0           z_mean[0][0]                     
__________________________________________________________________________________________________
tf.keras.backend.binary_crossen (None, 28, 28, 1)    0           tf.cast[0][0]                    
                                                                 tf.convert_to_tensor[0][0]       
__________________________________________________________________________________________________
tf.math.subtract (TFOpLambda)   (None, 2)            0           tf.__operators__.add[0][0]       
                                                                 tf.math.square[0][0]             
__________________________________________________________________________________________________
tf.math.exp (TFOpLambda)        (None, 2)            0           z_std[0][0]                      
__________________________________________________________________________________________________
tf.math.reduce_mean (TFOpLambda (None, 28, 28)       0           tf.keras.backend.binary_crossentr
__________________________________________________________________________________________________
tf.math.subtract_1 (TFOpLambda) (None, 2)            0           tf.math.subtract[0][0]           
                                                                 tf.math.exp[0][0]                
__________________________________________________________________________________________________
tf.math.multiply (TFOpLambda)   (None, 28, 28)       0           tf.math.reduce_mean[0][0]        
__________________________________________________________________________________________________
tf.math.reduce_sum (TFOpLambda) (None,)              0           tf.math.subtract_1[0][0]         
__________________________________________________________________________________________________
tf.math.reduce_mean_1 (TFOpLamb ()                   0           tf.math.multiply[0][0]           
…
