…
28_cnn.h5'}
(5000, 16385)
x.shape: (5000, 16384), y.shape: (5000, 1)
number of class: 5
min and max of x: 0.00, 1.00
x_train.shape: (4000, 128, 128, 1), x_test.shape: (1000, 128, 128, 1), y_train.shape: (4000, 1), y_test.shape: (1000, 1)

(128, 128, 1)
Model: "encoder"
__________________________________________________________________________________________________
Layer (type)                    Output Shape         Param #     Connected to                     
==================================================================================================
encoder_input (InputLayer)      [(None, 128, 128, 1) 0                                            
__________________________________________________________________________________________________
conv2d (Conv2D)                 (None, 64, 64, 64)   320         encoder_input[0][0]              
__________________________________________________________________________________________________
dropout (Dropout)               (None, 64, 64, 64)   0           conv2d[0][0]                     
__________________________________________________________________________________________________
conv2d_1 (Conv2D)               (None, 32, 32, 128)  32896       dropout[0][0]                    
__________________________________________________________________________________________________
dropout_1 (Dropout)             (None, 32, 32, 128)  0           conv2d_1[0][0]                   
__________________________________________________________________________________________________
conv2d_2 (Conv2D)               (None, 16, 16, 512)  262656      dropout_1[0][0]                  
__________________________________________________________________________________________________
reshape (Reshape)               (None, 131072)       0           conv2d_2[0][0]                   
__________________________________________________________________________________________________
z_mean (Dense)                  (None, 2)            262146      reshape[0][0]                    
__________________________________________________________________________________________________
z_std (Dense)                   (None, 2)            262146      reshape[0][0]                    
__________________________________________________________________________________________________
z (Lambda)                      (None, 2)            0           z_mean[0][0]                     
                                                                 z_std[0][0]                      
==================================================================================================
Total params: 820,164
Trainable params: 820,164
Non-trainable params: 0
__________________________________________________________________________________________________
…
