…
28_cnn.h5'}
(5000, 16385)
x.shape: (5000, 16384), y.shape: (5000, 1)
number of class: 5
min and max of x: 0.00, 1.00
x_train.shape: (4000, 128, 128, 1), x_test.shape: (1000, 128, 128, 1), y_train.shape: (4000, 1), y_test.shape: (1000, 1)

(128, 128, 1)
Model: "encoder"
__________________________________________________________________________________________________
Layer (type)                    Output Shape         Param #     Connected to                     
==================================================================================================
encoder_input (InputLayer)      [(None, 128, 128, 1) 0                                            
__________________________________________________________________________________________________
conv2d (Conv2D)                 (None, 64, 64, 64)   320         encoder_input[0][0]              
__________________________________________________________________________________________________
dropout (Dropout)               (None, 64, 64, 64)   0           conv2d[0][0]                     
__________________________________________________________________________________________________
conv2d_1 (Conv2D)               (None, 32, 32, 128)  32896       dropout[0][0]                    
__________________________________________________________________________________________________
dropout_1 (Dropout)             (None, 32, 32, 128)  0           conv2d_1[0][0]                   
__________________________________________________________________________________________________
conv2d_2 (Conv2D)               (None, 16, 16, 512)  262656      dropout_1[0][0]                  
__________________________________________________________________________________________________
reshape (Reshape)               (None, 131072)       0           conv2d_2[0][0]                   
__________________________________________________________________________________________________
z_mean (Dense)                  (None, 2)            262146      reshape[0][0]                    
__________________________________________________________________________________________________
z_std (Dense)                   (None, 2)            262146      reshape[0][0]                    
__________________________________________________________________________________________________
z (Lambda)                      (None, 2)            0           z_mean[0][0]                     
                                                                 z_std[0][0]                      
==================================================================================================
Total params: 820,164
Trainable params: 820,164
Non-trainable params: 0
__________________________________________________________________________________________________
Model: "decoder"
_________________________________________________________________
Layer (type)                 Output Shape              Param #   
=================================================================
z_sampling (InputLayer)      [(None, 2)]               0         
_________________________________________________________________
dense (Dense)                (None, 131072)            393216    
_________________________________________________________________
reshape_1 (Reshape)          (None, 16, 16, 512)       0         
_________________________________________________________________
conv2d_transpose (Conv2DTran (None, 32, 32, 128)       262272    
_________________________________________________________________
dropout_2 (Dropout)          (None, 32, 32, 128)       0         
_________________________________________________________________
conv2d_transpose_1 (Conv2DTr (None, 64, 64, 64)        32832     
_________________________________________________________________
dropout_3 (Dropout)          (None, 64, 64, 64)        0         
_________________________________________________________________
conv2d_transpose_2 (Conv2DTr (None, 128, 128, 1)       257       
=================================================================
Total params: 688,577
Trainable params: 688,577
Non-trainable params: 0
_________________________________________________________________
Model: "cnn_vae"
__________________________________________________________________________________________________
Layer (type)                    Output Shape         Param #     Connected to                     
==================================================================================================
encoder_input (InputLayer)      [(None, 128, 128, 1) 0                                            
__________________________________________________________________________________________________
encoder (Functional)            [(None, 2), (None, 2 820164      encoder_input[0][0]              
__________________________________________________________________________________________________
decoder (Functional)            (None, 128, 128, 1)  688577      encoder[0][2]                    
__________________________________________________________________________________________________
conv2d (Conv2D)                 (None, 64, 64, 64)   320         encoder_input[0][0]              
__________________________________________________________________________________________________
dropout (Dropout)               (None, 64, 64, 64)   0           conv2d[0][0]                     
__________________________________________________________________________________________________
conv2d_1 (Conv2D)               (None, 32, 32, 128)  32896       dropout[0][0]                    
__________________________________________________________________________________________________
dropout_1 (Dropout)             (None, 32, 32, 128)  0           conv2d_1[0][0]                   
__________________________________________________________________________________________________
conv2d_2 (Conv2D)               (None, 16, 16, 512)  262656      dropout_1[0][0]                  
__________________________________________________________________________________________________
reshape (Reshape)               (None, 131072)       0           conv2d_2[0][0]                   
__________________________________________________________________________________________________
z_std (Dense)                   (None, 2)            262146      reshape[0][0]                    
__________________________________________________________________________________________________
z_mean (Dense)                  (None, 2)            262146      reshape[0][0]                    
__________________________________________________________________________________________________
tf.cast (TFOpLambda)            (None, 128, 128, 1)  0           encoder_input[0][0]              
__________________________________________________________________________________________________
tf.convert_to_tensor (TFOpLambd (None, 128, 128, 1)  0           decoder[0][0]                    
__________________________________________________________________________________________________
tf.__operators__.add (TFOpLambd (None, 2)            0           z_std[0][0]                      
__________________________________________________________________________________________________
tf.math.square (TFOpLambda)     (None, 2)            0           z_mean[0][0]                     
__________________________________________________________________________________________________
tf.keras.backend.binary_crossen (None, 128, 128, 1)  0           tf.cast[0][0]                    
                                                                 tf.convert_to_tensor[0][0]       
__________________________________________________________________________________________________
tf.math.subtract (TFOpLambda)   (None, 2)            0           tf.__operators__.add[0][0]       
                                                                 tf.math.square[0][0]             
__________________________________________________________________________________________________
tf.math.exp (TFOpLambda)        (None, 2)            0           z_std[0][0]                      
__________________________________________________________________________________________________
tf.math.reduce_mean (TFOpLambda (None, 128, 128)     0           tf.keras.backend.binary_crossentr
__________________________________________________________________________________________________
tf.math.subtract_1 (TFOpLambda) (None, 2)            0           tf.math.subtract[0][0]           
                                                                 tf.math.exp[0][0]                
__________________________________________________________________________________________________
tf.math.multiply (TFOpLambda)   (None, 128, 128)     0           tf.math.reduce_mean[0][0]        
__________________________________________________________________________________________________
tf.math.reduce_sum (TFOpLambda) (None,)              0           tf.math.subtract_1[0][0]         
__________________________________________________________________________________________________
tf.math.reduce_mean_1 (TFOpLamb ()                   0           tf.math.multiply[0][0]           
…
